model/model.ckpt (torch, 276563 bytes, 30 tensors)

rnn.weight_ih_l0 f4 [160, 3]
00000000: ade9 813a ec86 12be e06a 3f3e 55dd a3bd
00000010: d561 b1bd 2eb1 783b d962 19be ba02 143c
00000020: 628a 103e 0164 7ebd 9550 1bbe 62ba ac3d
00000030: c373 9e3c fb8d 30bd 0625 c03d 558c d2bd
00000040: baf3 c53d 7e21 c6bd 1afb e9bd 3a5c 9dbd
00000050: d59a 7abe 8410 40bc 997f 13be 4c8e 093d
00000060: cc04 adbc 030e 243d 5536 903c c767 473c
00000070: b077 f4bb a98d 993c fd7c a4bd 2b3a bbbc
00000080: e6a6 8dbc 9cde 983b e52a d2bd 7cce 8b3d
00000090: 79d0 08be 6aae cf3d 5494 43bc 530c c03d
000000a0: 2780 1bbd b7c4 81bc 3805 a9bd 3c17 73bd
000000b0: 8379 4d3d f29e 3b3d 65cd bf3c 6e16 423e
000000c0: b4b9 9cbd 6089 c03d 4cc9 65bd 6855 f43d
000000d0: 0b47 0bbe 0b13 47be 7143 02bd 0ae1 883d
000000e0: 5632 193e 0caa 123e 112e 1e3e b687 b63c
000000f0: 2c79 d73d b953 153e bc9e 10bd dc42 803d
00000100: c223 153c 84f5 833d 09c8 1dbe c38c f3bd
00000110: 0919 58bc 330c 95bb f0e8 d73c cad6 80bd
00000120: bda7 5ebc 0c58 0a3e afac 3a3e cfd2 f23d
00000130: b3f9 133e f066 683e 1f95 3bbd 1a98 da3d
00000140: adaf f13d 1474 143e 888b 9d3d af02 bc3c
00000150: acf5 093e 0d7a 01be 7ce2 863d 9076 88bd
00000160: da57 7e3c 881d c43d 1567 fa3d 1a0f e8bd
00000170: 5dad 4f3d ae20 e1bd d48d d93d 56b1 dc3d
00000180: 2472 f83d 5366 0b3e 9e3c f93d 5623 fbbd
00000190: 6e2f 92bd 90d9 953d 4105 01be 8608 3fbd
000001a0: 2ea3 063d 4fd8 0fbe 8626 013e cf02 8fbc
000001b0: de7f e03c f95b 21be aca6 273d ff1e d23d
000001c0: 6de6 83bd 5706 5fbc cab2 abbd f1a1 da3b
000001d0: db85 313d 3e0b ca3c c8ff 26bc a7f4 ec3c
000001e0: d3fd f23d 918f 20be 0cf6 df3d 686f 143e
000001f0: 5db2 863d 3175 363d 02c9 0c3e 5060 5b3c
00000200: 567f 943d 531a 443d a6b9 e03d 4889 143e
00000210: b457 0b3e 6819 e9bd 203d 98bc 7887 553d
00000220: 4dd1 12be c60b c0bd 0187 ecbd e072 8dbd
00000230: c927 0dbd 0efe 083c 61b7 1fbe d9b9 ad3d
00000240: 4428 09be 7522 c93c 90c6 253e c2c3 4d3d
00000250: ac6e 4dbd 3174 143e e40a fd3d 031f 053e
00000260: 3935 343e b789 07bd 1105 fcbd 6fc0 1c3e
00000270: bf67 213e 4eb9 cd3d 4863 023e bc59 853b
00000280: 8679 dd3d 36a1 b43d e63e 99bb 8fc2 2e3d
00000290: cdd0 203e 0a54 e33d a2c3 1b3e fcc3 bc3c
000002a0: 0425 03be 9384 71bd ea72 28bd 4c84 9dbc
000002b0: ea5d 0b3e 203b df3d 2685 173d 100b d73c
000002c0: f45d e53d 0be8 233d c9e8 e23d 6475 5a3d
000002d0: e9db 303b ce87 05bd 4b69 003e 018e 0dbd
000002e0: ab8f 1d3e 3371 f53c fc8e 9ebd 6312 0c3e
000002f0: 2097 ae3d 06dd 843d 0f61 0ebe 6d7c 81bd
00000300: 9f18 803d d49c 02be f43a 6d3d 06ce 2eba
00000310: a304 6a3c 6280 cd3d 2e64 4a3d c6ae af3d
00000320: 81b3 a43d b2fc 1c3d cee8 b3bd d13d 2d3e
00000330: d259 933c 59e0 12be 4bc5 0d3e e4ba 6e3d
00000340: a23c f1bc 73cb d13d 7549 b33c 2998 64bb
00000350: 050c ed3d d049 33bd f35c 243d e6c5 243d
00000360: e479 c73d 40ee 193c 5bbc 0d3e 1737 aabd
00000370: e4f6 9dbc e051 93be 412f deba 4115 bc3d
00000380: 0b28 da3c 64ef c73d 661f 9b3d 1170 6b3e
00000390: 2523 583d b6fd ec3d e52b 053d d43c 30bd
000003a0: 1745 103e 10c8 073e 3fc1 703d 53fb 86bd
000003b0: 4c4d 183d 525e ad3d 52f1 bebd 014e 243d
000003c0: 1ba6 a53c 0a8b 87bd 6a54 8d3d 3899 113e
000003d0: b171 593d 420d 80bd 58d7 503d 69aa 48bd
000003e0: 4d82 bfbd f6fe 9e3d 8979 1ebe 1c9b a13d
000003f0: a3c2 17bd b1ba 17bd fbbb 50be 7871 0abe
0.000991156 -0.14309281 0.18693113 -0.080012 -0.08661238 0.0037947404 -0.14979114 0.009033853
0.14115289 -0.06210709 -0.15167458 0.08433987 0.019342309 -0.043104153 0.09382062 -0.102806725
0.09665628 -0.09674357 -0.11424847 -0.076836064 -0.24473126 -0.011722688 -0.14404143 0.03358297
-0.021120451 0.040052425 0.017604033 0.012170739 -0.007460557 0.018744307 -0.08031652 -0.022854885
-0.017291497 0.004665209 -0.10262088 0.06826493 -0.13360776 0.10140689 -0.01193722 0.09377351
-0.037964012 -0.015840871 -0.082529485 -0.05934833 0.05016471 0.04580588 0.02341337 0.18953869
-0.076526076 0.09401202 -0.056100175 0.119303524 -0.1360132 -0.19440858 -0.0318026 0.06683548
0.14960608 0.1432268 0.1544726 0.022281509 0.105211586 0.14582719 -0.03530763 0.062627524
0.009102764 0.06443313 -0.15408339 -0.118920825 -0.013189563 -0.0045485734 0.02635619 -0.06290968
-0.013589797 0.1351015 0.18229936 0.11856615 0.14450721 0.22695518 -0.04579651 0.10673542
0.118010856 0.14497405 0.07692629 0.022950498 0.13472623 -0.12644215 0.06586167 -0.06663239
0.015523875 0.09575945 0.122266926 -0.113310054 0.05070244 -0.10992561 0.10622755 0.10776012
0.121311456 0.13613252 0.12169765 -0.12262599 -0.07137953 0.073168874 -0.1259966 -0.046638988
0.032870464 -0.14047359 0.12612352 -0.017457394 0.027404722 -0.15757741 0.040930435 0.10259818
-0.064404346 -0.013612351 -0.08383711 0.006672137 0.043340545 0.024663564 -0.010192819 0.028925253
0.118648194 -0.15679766 0.109356016 0.14495623 0.06576989 0.044545356 0.13748553 0.013389662
0.0725085 0.047876667 0.1097291 0.14505494 0.13607675 -0.11381799 -0.018583834 0.052131146
-0.14337654 -0.093772456 -0.115491875 -0.06906676 -0.03446177 0.008361353 -0.15597297 0.08482713
-0.13394266 0.024552563 0.16189027 0.050235517 -0.050154373 0.14497449 0.12355593 0.13000111
0.17598428 -0.03309032 -0.12305654 0.15307783 0.15762232 0.1004511 0.12733185 0.004069535
0.108141944 0.08819811 -0.0046766875 0.042666014 0.15704651 0.111000136 0.15211347 0.023042671
-0.12807089 -0.058964323 -0.041125216 -0.019228123 0.13610044 0.10899949 0.036992215 0.026250392
0.11199561 0.040016215 0.110795565 0.05333461 0.0026986545 -0.032600217 0.12540166 -0.034559254
0.15386836 0.029961204 -0.07742116 0.13678889 0.085249186 0.064874694 -0.13904212 -0.063225605
0.06254696 -0.12755138 0.05791755 -0.0006668273 0.014283332 0.10034253 0.049411945 0.08578257
0.0804205 0.038326927 -0.08784638 0.16918112 0.017987166 -0.14343394 0.13844793 0.0582837
-0.029447857 0.10243883 0.021885613 -0.0034880734 0.11574558 -0.043771565 0.040127706 0.040227793
0.09740046 0.009395182 0.13841383 -0.08311289 -0.019282766 -0.28773403 -0.0016951339 0.09183741
0.026630422 0.09762457 0.07574348 0.22991969 0.05276789 0.11571829 0.032512564 -0.04302676
0.14088856 0.13259912 0.058778044 -0.06590905 0.03718309 0.08465256 -0.09323372 0.040113453
0.020220807 -0.066183165 0.06900866 0.14218605 0.05308694 -0.06252529 0.050986618 -0.04899064
-0.09351025 0.07763474 -0.1547605 0.07890913 -0.037050854 -0.037043277 -0.20384209 -0.13519847

rnn.weight_hh_l0 f4 [160, 40]
00000000: 2f26 0f3e 13f4 10be d84e 94bd 8974 053e
00000010: b0d8 46bd b714 21be ecfc 0ebd 3702 10bc
00000020: 0723 abbd c695 8d3b bf84 a93d 0aa9 01be
00000030: 43fd 41bc 531e 06be d8b6 843d 4b23 983d
00000040: ea02 fbbd d5a6 593c 072e 00be fe65 04bd
00000050: 4de6 053e 1abd 50bd 9ec9 c93d bb28 f43d
00000060: 2e44 b03c 45bd 913d 88b7 423d f5df 583d
00000070: 62f2 82bd e492 953c d128 90bd fb26 11bd
00000080: 9b81 193d 42e9 21bd ab86 cc3d 7be5 b83d
00000090: 25ea 043e c6ee 9c3d 76e6 a63d 2c07 66bd
000000a0: 1a8e 883e 8b1a ba3e f902 633b d803 2d3e
000000b0: 9304 403e 05d4 403e 5313 0fbe 2cda 723d
000000c0: 2a2a b03d c7fc ab3c 6155 5dbd 339d 1f3d
000000d0: 0723 043e 785a 713e 3b7c 073e 5b06 c6bd
000000e0: 8975 6c3e 35b3 243d a954 56be c9cb 16bd
000000f0: b701 2c3e b555 a4be 2510 db3f e717 02bf
00000100: 4f9d 9dbd d7ea 893e 0cc8 f03e ba1e 0d3d
00000110: 51f6 ebbe b426 0fbe 9c98 c6be b695 8c3f
00000120: 26d7 f3be 6d3b 2f3f 2699 5e3e 0bc8 4c3d
00000130: 914b 2bbe 2d47 5cbe dca3 51be bf28 aabd
00000140: 3925 363b 270f 10be 9eb4 8bbd 4f76 183e
00000150: e857 c4bc 18e7 0c3d 70b5 a9bd da68 9c3d
00000160: 0713 03be a975 1bbd c3ce f43d 9f68 d33d
00000170: 98be f3bd 8ad2 09be 8093 103e d08e d63d
00000180: c0a5 6e3d 909c 043e e6cb 203e 6f95 553d
00000190: 0dfa ab3d 21b6 3c3d 1dcd 11be 0c04 eabd
000001a0: 8994 593b 3ba4 01be 9804 00ba 2931 fcbd
000001b0: 05cb 1fbe c95f 0a3e e318 68bc 6176 043d
000001c0: 2a84 4cbc b66e 13bd b755 20be f267 00bd
000001d0: 6e14 37bc dbb6 393c 5593 a03c 68c9 f4bd
000001e0: 08de d43c 1bc7 e4bd a172 493d 75ab 873c
000001f0: 573d e1bd d073 69bd 810d 093c 5fa1 993d
00000200: 76d8 203e d439 36bd 265e a73c 5a9d 8b3c
00000210: 4473 b5bd 708a 06be 501b 5c3d 6178 503d
00000220: d2c2 703d b52f e43d e5bc a93d f78b 9e3d
00000230: 990b d2bd 7bf4 b7bd 3181 e43d 5fb3 b43d
00000240: e123 9d3d ff9a 9ebc 4922 cc3d b9ce 21be
00000250: af19 613d a7ce 2b3c bea4 033e 501a e23c
00000260: c9e2 02be e1da 9f3d 967d 273a 065d aabd
00000270: aa99 dabc 590c 41bb 20cb 84bd e034 84bd
00000280: 5fc6 023d 88d2 33be c4a6 e3bd 4835 273b
00000290: a790 4f3c b240 fabe ff6f d0bd efe1 81be
000002a0: 59dc 673d c114 07bf f1da b53b 7b29 bd3d
000002b0: 83cc 1fbd c044 2e3d 13d7 033e 7281 02bb
000002c0: 0edd 94be 34f5 d0bd 4ba9 a03c ffe4 7cbc
000002d0: dea0 2a3e 614a 6abd c4c8 90bf 2fdb 5f3e
000002e0: 08e0 df3d 2c47 b9bb 63ed 53bc 7995 063e
000002f0: 78a9 963d 1a24 46bb cf46 aebe 635b 8fbd
00000300: e8ad fabd 604c f3be 1424 2ebd 962a 24be
00000310: ed90 c4bb 3e78 17be 776a 08be 1722 003d
00000320: 1cd9 4b3f 3b69 b0be 76c6 86bf 968a 843f
00000330: 7522 50bf df2c bbbe acb0 2e3d a9ae 5c3f
00000340: 439e 2fbf 86c6 6c3d 3042 d2be b3c2 873f
00000350: f8c5 58bf 472a 1a3f 1a5e 573f 7549 063f
00000360: 441a 0cbf 33f4 9abd 1909 85bf 3753 1bbf
00000370: 5d8f 8c3e 1426 dabd fde0 623f eecc 053e
00000380: fde3 253f dcfb 09bf 941b 0540 c7ff cfbe
00000390: 13c6 2b3f f9df 77bf c5b3 763f 7e4a eb3e
000003a0: 9ed6 7fbf bd4a b7be 76d5 b03f d356 233f
000003b0: cf9b 613f 87d4 3fbf 8feb b4be cc99 92bd
000003c0: 683b a03d 85e3 9cbd ca5e c93c 7714 9c3d
000003d0: 23d8 0f3e 3e9d 98bd 83e7 00be 0f16 c33d
000003e0: 6301 cabd 746e 193d 0a8d 10bd 814b 50bd
000003f0: d30e de3d 0173 06be 48fc 943d f39c a13d
0.1397941 -0.14155607 -0.07241601 0.13032736 -0.048546493 -0.15730558 -0.034909174 -0.008789591
-0.0835629 0.004320833 0.082772724 -0.1266214 -0.011840167 -0.13097505 0.06480187 0.074286066
-0.12256415 0.013284405 -0.12517558 -0.03232383 0.13076134 -0.05096159 0.098529086 0.11921831
0.021516886 0.071161784 0.04753831 0.052947957 -0.06393887 0.01825852 -0.07039035 -0.035437565
0.037477117 -0.039529093 0.099866234 0.09028145 0.12979944 0.0766273 0.08149426 -0.056159183
0.26670915 0.36348376 0.0034639223 0.16895998 0.18751745 0.18830879 -0.13972215 0.059290096
0.08601792 0.020994557 -0.0540365 0.038968276 0.12903987 0.23569667 0.13230984 -0.09669181
0.23091711 0.040209968 -0.20930733 -0.03681544 0.16797529 -0.3209664 1.7114302 -0.5081772
-0.0769602 0.2693698 0.47027624 0.03445313 -0.46086362 -0.13979608 -0.38788307 1.0983188
-0.47625083 0.6845005 0.21738109 0.049995463 -0.16728045 -0.21511526 -0.20472664 -0.08308553
0.0027793183 -0.1406828 -0.06821559 0.14888881 -0.023967698 0.034400076 -0.082865596 0.07637186
-0.12800227 -0.037954006 0.11953499 0.10322689 -0.11901587 -0.1345922 0.14118767 0.10476458
0.05826354 0.12950349 0.15702781 0.052144464 0.08397303 0.04607213 -0.14238401 -0.11426553
0.0033200106 -0.12660305 -0.0004883497 -0.12314064 -0.1560479 0.13513102 -0.01416609 0.032339457
-0.012482682 -0.035994254 -0.15657698 -0.03134913 -0.011174304 0.0113351 0.019601503 -0.11952478
0.025984779 -0.11170789 0.049181584 0.01656125 -0.10998028 -0.056995213 0.008365036 0.07501482
0.15707573 -0.044488743 0.020430636 0.017042805 -0.08859876 -0.13138747 0.053736985 0.050896052
0.058779545 0.11141912 0.08287982 0.0774154 -0.10256118 -0.08982178 0.11157454 0.08823275
0.07672859 -0.019361017 0.09967477 -0.15801515 0.054956134 0.0104862815 0.12855813 0.027600437
-0.12781824 0.0780542 0.0006389258 -0.08318524 -0.0266846 -0.0029456823 -0.064840555 -0.064553976
0.031927463 -0.1756078 -0.111157924 0.0025513936 0.012668765 -0.48877484 -0.101776116 -0.25367686
0.056606624 -0.5276604 0.0055497815 0.092364274 -0.039013397 0.042546034 0.12875013 -0.0019913581
-0.290749 -0.10203019 0.019611975 -0.015435456 0.16662928 -0.05719984 -1.1311269 0.21860956
0.109314024 -0.0056542363 -0.012935015 0.13142957 0.07356542 -0.003023392 -0.34038398 -0.069998525
-0.12240201 -0.47519207 -0.042514876 -0.1603187 -0.005998722 -0.14791963 -0.13321863 0.03128251
0.7962816 -0.34455284 -1.0529315 1.0354793 -0.8130258 -0.3655767 0.042648956 0.8620401
-0.68600863 0.057806514 -0.41066122 1.0606292 -0.84677076 0.6022076 0.8412796 0.52455837
-0.5472758 -0.075661086 -1.0393401 -0.6067385 0.27453128 -0.10651794 0.88624555 0.13066456
0.6480101 -0.5389993 2.0798082 -0.4062483 0.6709911 -0.9682613 0.96368057 0.4595527
-0.99936855 -0.35799208 1.3815143 0.6380436 0.8812837 -0.74933666 -0.35335967 -0.07158241
0.07823831 -0.076605834 0.024581332 0.07621091 0.14047293 -0.074518666 -0.12588315 0.09525692
-0.09863546 0.037458852 -0.035290755 -0.050853256 0.10842671 -0.13129808 0.07274681 0.07891264

rnn.bias_ih_l0 f4 [160]
00000000: 712e 74bd 67a3 cebc 0459 d4bd 62cc ba3c
00000010: 716d 8a3d 7aaf 4e3f 75e5 c4bd 849b 02be
00000020: 614d c43d b9bb 803d ce9f 113e d733 04bd
00000030: 39bc 7bbd b63e 313e d9c8 9a3d d47b c93c
00000040: 167f 023f 58ca b2bb da79 16be 3e4e 02be
00000050: 01b3 913c 494c 24bd 5628 0dbe c654 ca3e
00000060: 591d 3dbd d076 303e c8fb 5ebd 5569 8f3c
00000070: 53ef 343d 23f8 bdbc b97b 9bbc cfe2 2d3e
00000080: 38c1 9ebd e95f 5fbe b9ad bcbe 1470 233c
00000090: 9d53 1ebb b966 553e 5d09 743e 94be e3bc
000000a0: 684a b63d 661d 1bbd cc45 0c3d 7cbc 5a3d
000000b0: e736 9f3e 8f88 873e 6a12 19bd 2268 fc3c
000000c0: beb3 463d 504a 49bd d3ca d93d 87de bb3d
000000d0: d5ab 0b3e 033f 043d 0de7 45bd f0b2 ee3b
000000e0: ebc7 fc3e 273d 41bc 5f07 1dbe a1ec 55bd
000000f0: 60b5 d4bb 037e 303e 8a3e 1d3d b53d d13e
00000100: d79c 263d 6231 943e 6d9d 10be 4caf 863c
00000110: ea95 42bc 07bb b43d a035 46bb 4c53 4d3e
00000120: 56e7 e53b 5693 043f 7aec 87be 10fe 433e
00000130: cccd c7bd c1bd 443e eba8 8e3d 44b6 dc3c
00000140: 521c 303e 676a 243e f0eb 203e a2cd 0fbe
00000150: be9b 06be b921 8fbb f24a 91bb ff3d a33d
00000160: 3c2a 033d 8107 d1bd 56ac 15be 0535 1c3d
00000170: d4da ecbd 798b ba3d 4cce dbbd 5fb7 713d
00000180: 9f2d 14be 11dd b23d 73ea 61bd 9c07 f5bd
00000190: 80b2 ce3d 11f2 1fbe 20ec c13d 4f3c c93a
000001a0: fee7 c1bc 0d7b a23d 4488 ea3d 7329 fc3d
000001b0: 187a 12be 422e df3c baf3 0cbe 4c11 13be
000001c0: 886b 5cbd 0e38 a73d c343 20be bfae 213e
000001d0: 4850 3cbd 5042 b83d 81ed eabc ff9f 813d
000001e0: d778 d7be 1879 783e 8f20 4abf 2710 cfbe
000001f0: 6599 323e 90be 463e 10cc 4d3c 83bb a3bc
00000200: 3488 e23d 45c2 3b3f 1b7d 82bf 6a43 05bf
00000210: 6515 d73e 80e4 a1bf 99ae efbe 7bd4 563f
00000220: 796d 493d f12a fa3d 5eda eebe b377 eabc
00000230: 4c54 93bf fca1 91bf 74b8 9d3e b873 f8bd
00000240: 7d6a 173e b39a 293f d540 c8be 1c37 4b3f
00000250: e1bf 333f ad01 62bf 0bab 503f 5cb7 f23e
00000260: c2b9 3fbf 8565 213d 2bff 09bf 1ba1 103e
00000270: bd46 663e 452a 13bf d4d5 a2bf 56af 1cbe
-0.059614602 -0.0252244 -0.10368541 0.022802535 0.067591555 0.80736506 -0.09614078 -0.12754637
0.09585071 0.06285805 0.14221117 -0.032276 -0.0614588 0.17309079 0.0755784 0.024595179
0.5097517 -0.00545625 -0.1469492 -0.1272516 0.017785551 -0.040111814 -0.13784918 0.39517802
-0.046170566 0.17232823 -0.054439336 0.01750628 0.04417355 -0.02318961 -0.018979894 0.16981052
-0.07751697 -0.2181393 -0.3685129 0.009975452 -0.0024158724 0.20839967 0.23831697 -0.027800836
0.089009106 -0.037869833 0.03424625 0.05340241 0.31096575 0.26471373 -0.037371077 0.030811373
0.04851126 -0.049143136 0.10634389 0.09173303 0.13639767 0.032286655 -0.04831605 0.0072845146
0.49371275 -0.011794365 -0.15334843 -0.05222762 -0.006491348 0.1723557 0.03838972 0.4086739
0.040676918 0.28943926 -0.14122553 0.01644101 -0.011876563 0.08824735 -0.0030244365 0.20051306
0.007016103 0.51787317 -0.26547605 0.19139886 -0.097560495 0.1921301 0.06965812 0.02694238
0.17198303 0.16056214 0.15715003 -0.14043286 -0.13145348 -0.0043680337 -0.004433983 0.07970809
0.0320227 -0.102065094 -0.14616522 0.0381365 -0.11565176 0.091086335 -0.107327074 0.059012767
-0.14470528 0.08733571 -0.05515523 -0.11964342 0.1009264 -0.15619685 0.094688654 0.0015353056
-0.023670193 0.07933626 0.11451772 0.12312593 -0.14304388 0.027243737 -0.1376485 -0.14362067
-0.053813487 0.081649885 -0.15650849 0.15789317 -0.045975 0.08997023 -0.028677704 0.06329345
-0.4208438 0.24264944 -0.7895593 -0.4044201 0.17441328 0.19408631 0.012560859 -0.019986873
0.11061135 0.73343307 -1.0194429 -0.5205599 0.4200851 -1.2647858 -0.46812895 0.8391797
0.049176667 0.12215222 -0.46650976 -0.02862153 -1.15101 -1.1377559 0.3080479 -0.121314466
0.14786716 0.6625168 -0.39111963 0.79380965 0.7021466 -0.8828381 0.8151099 0.47405517
-0.7489282 0.039403457 -0.5390498 0.14123957 0.22487922 -0.57486373 -1.2721505 -0.1530126

rnn.bias_hh_l0 f4 [160]
00000000: 2a02 383d 74cd a7bd c26b 86bd 4ae5 253e
00000010: bbe6 39be cd4a 393f 1883 e5bd 6318 1cbe
00000020: 5746 1c3e 8c9b 813d fcf5 193e 4d85 04be
00000030: f333 ebbc 235c 96bd f403 483d 0d04 0a3c
00000040: 7400 123f 189b 113a 7167 063e 156c 933d
00000050: 3dc6 bc3d 6fac 06bd 120a fd3d b30b e03e
00000060: 2348 903d d2e9 10bc be0f 833c 1e43 b6bc
00000070: a99d 583d 0371 d0bd 410e acbd a888 113d
00000080: 02f2 f2bd 11c2 8cbe 8553 2cbe 9e70 c13d
00000090: c0e9 c53d 783a e53d 9ff4 0d3e c233 8f3d
000000a0: 300d b5bd a329 56be beef 463c 2aa9 a8bd
000000b0: 1561 553e 56c5 8b3e 5265 cf3d 7375 ea3d
000000c0: 8fdf e53d 36fa c23d f7dd ba3d 8846 b03d
000000d0: 2a6c 103e b161 f9bd 3247 2f3d 9aeb 093d
000000e0: 2f53 ec3e 42aa 1e3e 8744 9dbd 63c7 1b3e
000000f0: d240 353d c321 c6bd 6088 933d 0356 113f
00000100: 6234 b43d b2de 043e df4a e6bd 2a8d 163e
00000110: aee2 843e 8c79 f93d 49fb 173e a277 113e
00000120: e0d7 f9bd 856a ba3e c4ad a5be 6258 b63d
00000130: 243e 223e ef32 48bd 94cc 433e dd5d 063e
00000140: 552f 503e 6f1b 503e aab4 2c3d 8609 253d
00000150: 99c8 de3d bce3 17be a205 b03d cd39 e2bd
00000160: 36e9 1fbe 1d62 0b3e 621b febd df81 c03d
00000170: 1a4e 30bd df83 263e 812c dbbd e206 cb3c
00000180: edb3 fa3d dc8b 073e faaf 3e3d 6f03 9e3d
00000190: 8876 0f3e 13aa 803d 403d b73d 2a8e 9e3d
000001a0: cd59 54bc 3fd3 333c adc9 82bd dd71 d03b
000001b0: 0419 8e3d 422f 853d 1f71 023e 90eb 653c
000001c0: 0168 fc3d 0f82 be3e aea6 df3d 6d30 303e
000001d0: 83fe 203d 8d99 193c dd94 c43d ae1b 08be
000001e0: 7504 01bf a1fe e63d d3c7 35bf 1a30 cdbe
000001f0: ba95 e43d 9d5d 683e 09dd 08be fc05 183e
00000200: 156f 3e3e 43ea 5d3f 41fc 8abf 2a9c f7be
00000210: a4cf 9d3e 17cd a1bf 1a82 e4be 55fe 323f
00000220: 89c0 1cbb dbab e83d eba9 e9be 3534 b73b
00000230: 79f0 a9bf bf04 5bbf 394f 643e 1c08 91bd
00000240: 1d36 fc3d 1b6f 1b3f c3f3 0fbf cb84 0e3f
00000250: 2bde cc3e bad3 65bf eaf4 453f 9135 b73e
00000260: 14e2 44bf 66d0 0e3e 6101 debe 0889 663d
00000270: 6bb9 ae3e 45bf 0abf e302 99bf f110 b5be
0.04492394 -0.08193484 -0.06563522 0.16200748 -0.18154423 0.7237976 -0.11206645 -0.15243678
0.15261208 0.06328496 0.15035242 -0.12941475 -0.028711295 -0.073417924 0.048831895 0.008423817
0.5703194 0.0005554422 0.13125397 0.071983494 0.092174985 -0.03287929 0.123554364 0.43758926
0.07045009 -0.00884481 0.015998717 -0.0222488 0.05288473 -0.10177805 -0.08401156 0.035530716
-0.118625656 -0.2749181 -0.16828735 0.09445308 0.09663725 0.11192793 0.13862847 0.06992294
-0.08840406 -0.2091432 0.01214212 -0.082353905 0.20837815 0.27298993 0.10126747 0.11448183
0.11224281 0.0952038 0.09124368 0.08607203 0.14103761 -0.12176836 0.042792507 0.033671953
0.46157214 0.15494636 -0.07679086 0.15212779 0.04425127 -0.09674408 0.07203746 0.5677187
0.08799054 0.12975577 -0.11244749 0.14702287 0.25954193 0.12181386 0.14841951 0.14205793
-0.12199378 0.36409393 -0.32359135 0.089035764 0.15844017 -0.0488767 0.19121009 0.13121744
0.20330556 0.20322965 0.042164482 0.040292285 0.10878105 -0.14832968 0.085948244 -0.11046181
-0.15616307 0.13611646 -0.124075666 0.09399771 -0.043043233 0.16261242 -0.10701848 0.024783555
0.12241349 0.13236946 0.046554543 0.07715499 0.1401006 0.06282439 0.089472294 0.077419594
-0.012960863 0.010975658 -0.06386123 0.00636123 0.06938365 0.06503154 0.12738465 0.014033213
0.12324525 0.37208602 0.109204635 0.17205973 0.03930522 0.009374988 0.09598706 -0.13291809
-0.50397426 0.11279035 -0.7100803 -0.4007576 0.111613706 0.2269196 -0.13365568 0.14846033
0.18597062 0.8668558 -1.0858232 -0.4836133 0.3082248 -1.2640713 -0.4463051 0.6991933
-0.002391847 0.11360904 -0.4563745 0.0055909404 -1.3276511 -0.85554117 0.22295846 -0.07081625
0.12315009 0.6071641 -0.56231326 0.55671376 0.4001325 -0.89776194 0.77326834 0.35783055
-0.7690747 0.13946685 -0.43360427 0.056283027 0.34125838 -0.54198104 -1.1954006 -0.35364488

rnn.weight_ih_l1 f4 [160, 40]
00000000: f578 923e 8eb2 32be b8de f6be 4179 6b3e
00000010: 3df0 04bf 2b0d 453e 4e8c 10bd e7c5 cf3d
00000020: d111 bcbe 795e 853e 2655 3b3c f595 8d3e
00000030: bfa0 5ebe e8b4 243e 6beb 1a3e 244e a23e
00000040: b54c 93be 2162 dfbd f2d9 c1be 8778 bcbd
00000050: 3eb9 a33c 58a4 25be 4165 f83d 8cdf c83e
00000060: 2d36 e13e 4255 d6be 0d0b fd3d fe9e 48be
00000070: 8bd5 673e d718 1cbe 4b47 e33e d5f0 493e
00000080: 40d7 883d 226b fa3d 3584 393d d08b 0a3f
00000090: 59df 033c e322 c3bd ed76 34be ecc1 ae3d
000000a0: 06e9 c9bd cabd 153e e4cf 84bf 6420 b8bc
000000b0: e017 123e e41c 1dbf 5861 093d 24a6 0ebe
000000c0: 713f bc3d 37b4 fabe be41 c1bd cc2e 553f
000000d0: 2abd c13d 6225 753e bc09 733e 7654 51bd
000000e0: a2bd 983d dc5b 0f3e efe1 08bf 95b8 b53d
000000f0: 51fb 933e 8688 84bd 28f9 b5bd 099b 08bf
00000100: 0b5a 48bd d358 143e be00 8fbd cdbc 183f
00000110: 03a1 0abe 61fd 84bf fc6c 94be 9983 6dbf
00000120: 398d ae3d 2aa5 783d b7dd b33d 854e fdbd
00000130: 0db3 fc3d 896f 49be cf27 83be 7c39 19be
00000140: 7310 113e 4600 79be 5ddc aabf 59d0 8f3e
00000150: 7e0a 063e e7c1 25bf b9be 3c3c b65c fcbd
00000160: 84a2 6b3d 75de 55bf 98a6 31bc a5df 243f
00000170: 705e ddbd b4b3 113f b139 c93e 6f9d 14be
00000180: ca96 82bd d790 c5bd e108 91bf 60b6 ec3b
00000190: b49b 783d dd24 36be 7287 853d 4cfa 3fbf
000001a0: 7f2a 093d d27f 0e3e 47c9 0e3d 5615 253f
000001b0: 48f0 bbbe a6e0 40bf e8dd 8bbf 3689 4abf
000001c0: f655 59be 2b5e 0fbe 5805 9fbd 504a e8bd
000001d0: 78d4 e23d 8552 3ebf c050 01bf 11f6 24be
000001e0: 8714 94bd 99c1 edbd bed4 e9bd 2f2d 353e
000001f0: 5e43 ef3b 04ad dfbd 72b5 7b3d a189 ddbd
00000200: 185e 023d 9fb6 813c fe50 0cbe 5091 793d
00000210: 17d6 2abe d3d9 cfbd 744c 7ebd f4ec 3e3e
00000220: eabc b63d f994 7abd 4a17 93bd fd28 24be
00000230: 1991 acbd 5281 bebc 5d9f 703b 2648 473d
00000240: 82b4 3b3d 3385 153d 0d8f 1abd 59cf 0ebe
00000250: ad85 b03d b00b ad3b 9b22 e03d deb9 ca3d
00000260: 832a 29be 3127 ec3d 5f7a bb3d 2e3f 4d3d
00000270: 8776 b63d 87e8 043d 3db5 94bc 9099 ee3d
00000280: a9ba fbbc d9f7 e7bb 173e 79be 3242 093e
00000290: 619a fa3d 3b5e 2bbe 0ded 783d 7042 32be
000002a0: 01ab 6cbe 7bf9 9c3c f17d ecbc 3a62 7c3e
000002b0: 1cf1 4ebd 1b49 283e 81f6 c33d 8c1b 9e3b
000002c0: e82f 8dbd 3ade d2bc 53e4 91be b5aa 98bd
000002d0: d0dd 2a3c df96 66be 9e3f 243d ed50 96bc
000002e0: fa25 1bbc ee5f 51be 6a83 6cbd d8c6 803c
000002f0: 58d0 1a3e d1f0 f9bd 5ee3 81bd 4b8f 373e
00000300: d0a6 413d fdce f4bb 2e2f c63c 70e3 55bd
00000310: a7f0 3f3e bfb8 3bbe 888f 21be 0483 94ba
00000320: 3268 7bbd 1db9 a43c 3784 353e 6b86 023f
00000330: c193 29bd b183 0c3f 02c5 84bd 1c3b e0bc
00000340: 1a01 a73c e5dd ff3e ae21 25bf bf81 963f
00000350: 80ba f13c 2b26 1cbe 30a5 a6bd d62d 6e3b
00000360: ba20 e9b9 6f72 8fbb a726 233e cdd4 b9bc
00000370: 8496 503e 23f6 f03d 167b c03e 512d 0f3e
00000380: 5761 27bd 2baa c73e 669a 353f b0c4 bb3d
00000390: 73ab 0ebe 8b08 2bbf 878b a1bb 97b4 033f
000003a0: dd42 13bf 92bb 85be 7ed1 723f 0015 5d3e
000003b0: 538c dd3d fd39 2e3d b1ac 553d 94da 933d
000003c0: b7bf 35be 1049 b03e a5f4 e8bd 2d07 1a3f
000003d0: de26 d33e c996 063e 8d79 07be 52f3 863d
000003e0: a15e 49bd d66d 59bd ffe1 673e c0f8 443e
000003f0: 5597 2ebe f2ef 4a3e 64c2 f83c d9c2 46be
0.28607908 -0.17450926 -0.48216796 0.22995473 -0.51929075 0.19243304 -0.035290055 0.10145169
-0.36732343 0.2604864 0.011433875 0.2765347 -0.21741007 0.16084635 0.15128867 0.31700242
-0.2876946 -0.109073885 -0.37861592 -0.09202676 0.019985791 -0.16175973 0.12128688 0.39233053
0.43986645 -0.41861922 0.123556234 -0.195919 0.22640054 -0.1524385 0.4439033 0.19720776
0.06681681 0.12227465 0.045292098 0.54119587 0.008048856 -0.095281385 -0.17623492 0.085330814
-0.09858899 0.1462318 -1.0375943 -0.022476383 0.1426692 -0.6137221 0.0335401 -0.13930565
0.09191788 -0.48965618 -0.094363675 0.8327453 0.09459908 0.23940042 0.23734182 -0.05110594
0.074580446 0.13999885 -0.5346975 0.08873097 0.28902677 -0.06471352 -0.088854134 -0.53361565
-0.048913997 0.14487009 -0.069825634 0.5966309 -0.13537984 -1.0389825 -0.28989398 -0.9277893
0.0852303 0.060704388 0.08782523 -0.12368492 0.12338839 -0.19671454 -0.2561631 -0.14963335
0.14166431 -0.2431651 -1.33485 0.28088644 0.1308994 -0.64748996 0.011520081 -0.12322371
0.057528034 -0.8354257 -0.010842942 0.64403754 -0.10809028 0.5691483 0.39301828 -0.14513181
-0.06376417 -0.09646767 -1.1330835 0.007223889 0.060695365 -0.177875 0.06519975 -0.749913
0.033487793 0.13915947 0.03485992 0.6448568 -0.36706758 -0.75342786 -1.0927095 -0.7911562
-0.21224198 -0.14000766 -0.07764691 -0.11342299 0.110756814 -0.74344665 -0.5051384 -0.16109492
-0.07230478 -0.116091914 -0.114175305 0.17693017 0.007301732 -0.10921672 0.061452337 -0.10817266
0.031828016 0.01583415 -0.13702771 0.060929596 -0.16683231 -0.101489685 -0.06208463 0.18645078
0.08922751 -0.061177228 -0.071821764 -0.16031261 -0.08426113 -0.023255024 0.0036716082 0.04865279
0.045826443 0.03650398 -0.03773408 -0.13946284 0.08619247 0.0052809343 0.109441005 0.098987326
-0.16520123 0.11530913 0.091542 0.05010908 0.08909326 0.032448318 -0.018152827 0.116503835
-0.030728655 -0.0070791063 -0.24340092 0.13404158 0.12236477 -0.16735165 0.060772944 -0.17408156
-0.23112108 0.01916193 -0.028868647 0.24646845 -0.05052291 0.16434138 0.09568501 0.004825061
-0.06893903 -0.025740732 -0.2849451 -0.07454435 0.010428861 -0.2251849 0.040099733 -0.018349135
-0.009469504 -0.2044675 -0.057742514 0.015719816 0.1511854 -0.12204135 -0.06342195 0.17925756
0.047278225 -0.007470964 0.024192419 -0.052218854 0.18744145 -0.18332194 -0.15777409 -0.001133055
-0.061378665 0.0201078 0.17726217 0.50986356 -0.041400675 0.54888445 -0.06482889 -0.027371936
0.020386267 0.4997398 -0.64504516 1.1758345 0.029507875 -0.15248935 -0.08136976 0.0036343238
-0.00044465606 -0.004377655 0.15932713 -0.02268448 0.20369917 0.11765697 0.37593907 0.1398213
-0.040864315 0.38997015 0.7093872 0.091683745 -0.1393259 -0.6680991 -0.004929963 0.51447433
-0.575239 -0.26119667 0.9485091 0.21590042 0.1081778 0.04253577 0.052166644 0.07219425
-0.17748915 0.34430742 -0.11374787 0.601672 0.4124059 0.13143457 -0.13229962 0.065893784
-0.04916251 -0.053083263 0.22644804 0.19235516 -0.17049916 0.19818094 0.03036613 -0.19410266

rnn.weight_hh_l1 f4 [160, 40]
00000000: 94c5 38be 8c03 46be 3c26 3fbd 15c3 d93e
00000010: 56fa 0abe 0b36 6e3e e5dc 70bd c7be 01bd
00000020: 5d9d c7bb e7b2 2f3e 46ff 643e e37e db3e
00000030: 3188 34be 653d 553e dbca 80be c98d 703e
00000040: 3f57 053e 6fd8 643b ae0e 093e d710 1c3d
00000050: 3196 f63c a622 05be e977 7c3e fa5c fa39
00000060: 649c c03d 2049 1ebe 6612 3cbd fa3a 2d3e
00000070: eaa4 3bbd c385 df3d 9a21 783d cf4b b2bc
00000080: fcb2 c7bd 8d73 d93d fbcf 34be eee0 07be
00000090: 48ed 5b3d 29c9 b93d c5a3 633e 0619 933e
000000a0: 69a3 f6be 9847 d43e ca64 86bd cccd 6b3d
000000b0: 6b15 10be ac8f 823e 68c9 893e f7ad fa3e
000000c0: 7b48 e13d 934d 853e 5f73 8c3e c2d7 b6bd
000000d0: f2a2 70b9 08da 113e 0ce5 7c3d 867a da3b
000000e0: 00b9 7f3e f431 4a3d 703f 3f3d 729e d0ba
000000f0: ab15 e53d 2a1b 1dbf 49b9 94bd 7ea3 b0bc
00000100: c9e4 09be dff7 3fbe 0168 693e 471f 903e
00000110: 456e 09be 43f1 8f3e 4394 b9bd fa35 a0bd
00000120: 9abb 233e e288 a5bd 5cec c1bd 4548 0b3e
00000130: 072d 503c 1de5 1e3e cbc6 683e 149d 35be
00000140: e257 8d3e dec8 1fbe 4ef8 01bf f90f bebd
00000150: f11d 1cbf 295f 56bf 2f8a fdbe 85d7 bf3e
00000160: c192 643d abd8 483e ea33 713f 4f4e 03be
00000170: d4f5 2e3e 0406 8d3e 5e84 c93d ecc5 fe3d
00000180: 8203 913f 721b ea3c 9546 b4bc f195 683c
00000190: 410c 893b 166e c3bf bf5e 853e f8e7 f2bc
000001a0: 48a2 adbd 977c 293e 01a4 9fbe 046e 423e
000001b0: 0bf0 fabd 752e 333f 89b8 963d 3b6b d7b9
000001c0: fe4a 49be 2db5 c0bd 503e 7fbe debd 613d
000001d0: 6691 2b3e 1d80 fdbd b24a 8c3d 93d0 c9bd
000001e0: 99e3 2bbc 6f58 1abd be53 48bd aca8 5b3e
000001f0: ecf2 99bc 3a17 e53d 61db 183d ea16 2d3e
00000200: 7047 07bd 0ca6 20bd 873b 743e 3317 663e
00000210: 1347 873d 4c29 773d 52dd 3ebe 10e2 d83d
00000220: 94d2 0c3e 63c9 ec3c 5018 d3bc b0a0 4c3d
00000230: ca67 fa3d 32e6 c4bd d6aa 473e e953 3dbd
00000240: e70c e93d 4673 c9ba 3f27 b83d 763e d13d
00000250: aac4 363d 53cb f7bb 02f5 d13c 6c18 7e3c
00000260: 105e 04be 9aa7 4d3e cd7a f9bd 7f0b b3bd
00000270: a633 de3d 3ec4 113e 2b4a 4e3e 9613 563e
00000280: efc2 91bb 05cb 43be 8a7a fcbd 4a0f e3bd
00000290: 7b6f 27be 2344 9bbd 8d66 bebd 0d97 2dbe
000002a0: 2bf3 c0bd b4e4 8fbd 11e3 343e b00c cf3c
000002b0: 1124 56be 76e3 593e a941 7c3d 9d83 1cbd
000002c0: 854f 57bd 40a9 4f3d c881 893c ac6e 403e
000002d0: a596 7e3e d952 f6bd 2da8 1ebb adb5 b3bd
000002e0: cf64 5e3e e3d1 b3bd 9cbd 663c fc45 0a3e
000002f0: 510d a53d 4141 123e 614c 953d 0b70 bb3c
00000300: 8225 27bd 2dde 803d bf69 2c3c 43a7 81bd
00000310: 3418 b7bc f76c 9a3c 5241 1e3e 0811 053e
00000320: 0c61 63be a665 2f3e 2364 053f 66a3 e23d
00000330: e647 903e 6057 91be 16e7 46be c80c e0be
00000340: 9302 223e 2f0e 293f f534 c5be 01e9 06be
00000350: bf52 c3bd 13fa 1a3d e019 a43d f0c5 203d
00000360: 62b2 83be a304 08be 6237 7ebe d979 81be
00000370: 0bbd 133e d3f6 a13e 43da 11be 4843 ebbe
00000380: 11df 7b3c d4dd 7bbe 55af ae3e b4db 96bd
00000390: 37f4 cfbe df9c 68be 6b72 35bd 427b 1fbc
000003a0: b28e 003e dba6 b5bd 2675 f13d c597 18be
000003b0: edf3 e0bd 2bed 1d3f 9756 db3d 2099 b33c
000003c0: 2161 bfbe d590 36be 898a d9be 4fe7 08be
000003d0: a66c 62be 3171 95bc 9e33 8e3f b1bd d43e
000003e0: 7f3c 11be 1a2b d13d e410 683d b8bd b7bd
000003f0: 686f cd3b ba78 5a3e 6ef7 123d 7b97 6abd
-0.1804412 -0.1933729 -0.046667323 0.42531648 -0.13572058 0.23262803 -0.05880441 -0.03167608
-0.006091757 0.1715809 0.22363004 0.42870244 -0.17630078 0.20824201 -0.25154766 0.23491587
0.13021563 0.0034919044 0.13384506 0.038101997 0.030100914 -0.13001499 0.24655117 0.0004775299
0.09404829 -0.15457582 -0.045915984 0.16917029 -0.04581157 0.10914185 0.06057892 -0.021764664
-0.097509354 0.10617743 -0.17657463 -0.13269398 0.053693086 0.090715714 0.22230442 0.2873003
-0.48171547 0.41460872 -0.06562193 0.05756931 -0.1407067 0.25500238 0.26911473 0.4896085
0.11000153 0.26035747 0.2743177 -0.08927871 -0.00022948885 0.14243329 0.061741874 0.006667438
0.24972916 0.049364045 0.046691358 -0.0015916361 0.111857735 -0.61369574 -0.07261903 -0.021562334
-0.13466181 -0.18746899 0.2279358 0.28148863 -0.1342097 0.28113756 -0.09061482 -0.07822795
0.15989533 -0.08082749 -0.0946891 0.13601787 0.012706048 0.15517087 0.22732083 -0.17735702
0.27606112 -0.15603969 -0.5076951 -0.0928039 -0.60983187 -0.8373895 -0.49519488 0.37469116
0.055804018 0.19613902 0.9421984 -0.12822841 0.17085963 0.27543652 0.098397 0.12440094
1.1329195 0.02857754 -0.022006312 0.014195905 0.004182369 -1.526797 0.26048848 -0.029651627
-0.08478218 0.16551434 -0.31179813 0.1898728 -0.12252816 0.6999276 0.07359416 -0.00041087889
-0.19657513 -0.094095565 -0.24926114 0.055112712 0.16754684 -0.12377951 0.068501845 -0.098542355
-0.010491275 -0.037681993 -0.048907988 0.21451062 -0.018792592 0.11186071 0.03731859 0.16903272
-0.033027112 -0.039220855 0.23850833 0.22469787 0.06605353 0.06034212 -0.18639114 0.10589993
0.13752204 0.028904622 -0.025768429 0.04995793 0.122268274 -0.09614219 0.19498762 -0.0462226
0.11379414 -0.0015369437 0.089918606 0.102169916 0.044621147 -0.00756208 0.025629524 0.015508752
-0.12926507 0.20083466 -0.121816255 -0.08742427 0.10849695 0.14235017 0.2014548 0.20905909
-0.0044482867 -0.19120415 -0.1232806 -0.110869005 -0.1635112 -0.075813554 -0.09296904 -0.16952153
-0.094213806 -0.070260435 0.17664744 0.025274605 -0.20912196 0.21278176 0.061586056 -0.038211454
-0.05256607 0.05069852 0.016785517 0.18792218 0.24862154 -0.12027521 -0.0024209127 -0.08774886
0.21718143 -0.08780267 0.014083292 0.1350326 0.080591805 0.14282705 0.07289959 0.022880575
-0.040807255 0.06292377 0.010523259 -0.06330731 -0.022350408 0.018850787 0.15454605 0.12994778
-0.22204989 0.1712862 0.5210592 0.11066322 0.28179854 -0.28386974 -0.1942409 -0.4375975
0.15821294 0.6603727 -0.38516966 -0.13174821 -0.09537267 0.037836146 0.08012748 0.039251268
-0.25722033 -0.13283019 -0.24825814 -0.25288275 0.14427583 0.31633624 -0.14243416 -0.4594977
0.015373007 -0.2459634 0.34118143 -0.07366124 -0.4061601 -0.22716092 -0.04429857 -0.009733977
0.12554434 -0.08869716 0.117899224 -0.14901645 -0.10984025 0.61690015 0.10709875 0.021923602
-0.3737879 -0.17828687 -0.42488506 -0.13369487 -0.22111759 -0.01824245 1.1109502 0.41550973
-0.14183234 0.10213299 0.056656733 -0.08971733 0.006269384 0.21335116 0.0358805 -0.05727337

rnn.bias_ih_l1 f4 [160]
00000000: b57a c03d 1664 ac3d 39a4 cdbb 7431 f93d
00000010: ec25 9f3d f86c febd 78ea 86bc d74c 9f3d
00000020: ef8d 9fbd fb2a 253e 8dab b23d 220e d63d
00000030: 991c 943e d8b1 1c3e e79c 283e fcfc cb3d
00000040: 3ea2 493e 3f1d ea3d 3d7e 78be 920f 29bd
00000050: 4474 4bbd ed6f 3b3e 3c3c bcbd ed50 783e
00000060: 4b54 d83d 45b5 33bd a78f 2ebe 9ccc 423d
00000070: 32fe f3bc 587d 27bd 0a67 163e db61 3b3e
00000080: accf 183d 3cb7 ab3d 09a7 3a3e 0f01 443d
00000090: 4be1 2b3e 9b75 9dbe b987 0f3e f96f b43d
000000a0: f289 20bd fad3 1b3c af1a 293d 5df1 2f3d
000000b0: c17a 05bd 5d3c 983d 4223 3e3e 151d 383e
000000c0: 5845 2cbd 6296 9cbc 48f1 423d 3680 843b
000000d0: 937c 633e 585d 203b d48c 373e 271d fc3d
000000e0: 3a79 0b3e 6895 04bd 4a0e cbbd 8c5d 89be
000000f0: d508 8d3d 8aa8 d53d 947e 393e 75a4 203e
00000100: 1713 d33c 1158 fcbc 3476 4e3e da20 db3c
00000110: a157 e43d d97d 433e f83f 413e 2534 e63d
00000120: 0248 903c af06 5f3e a7c4 313e 0c53 2e3e
00000130: 088d aa3d febd a93d d715 673e 24dc 613d
00000140: eca8 593e 5df1 0cbe 5537 84bd 85ef 223c
00000150: fe4f 9bbc 106a dc3c cd64 853d efdb 1a3e
00000160: 8394 06be c3e2 f23d 5cd7 0c3e 52e5 b9bd
00000170: d77f 45be 4d7e 733e 14ea f0bd f6c0 373e
00000180: a4df fc3d c18b 493d 76a7 c5bd 6cd7 0d3b
00000190: 3a99 c73d 0f72 9d3c a30d 303e 0dd6 d5bd
000001a0: 103d 1ebd b157 003e 92c8 aabd 48f4 b43c
000001b0: f087 1dbe 3f49 6c3c 952d c23c 9de4 363d
000001c0: aac6 38be 6fe8 5cbd cb9d 163d a432 34bd
000001d0: adc1 333e 6957 c4bd cf00 20bd a86b ec3b
000001e0: 4a76 943d 3c1b 233e 0a13 fb3d b572 813d
000001f0: 4210 c3bd c5e2 9f3c 4635 9a3e 025c 2bbd
00000200: 2333 013e 2e46 70be fc3e 3b3e 0ec5 8ebd
00000210: a5cb b3b9 dc76 5ebd 2670 b83d e13a 9abc
00000220: 9fe7 05bd d62e 443d 172a b63d 8a83 423e
00000230: 7feb 233e 7cae bd3e 4188 733d 71e6 fabd
00000240: b446 ca3d 70a8 a2bd 6b6a a23c c645 7bbd
00000250: 1f48 c23d 0d7b 8abc 8c3c 0dbe c212 db3b
00000260: e808 79bd 8de1 363e 4dc0 4dbd c766 68bd
00000270: 855a e8bd fcad c43e 3fd3 afbb 1dae 0b3e
0.093984045 0.084175274 -0.0062756804 0.121676356 0.07770905 -0.12423128 -0.016469225 0.07778328
-0.077907436 0.16129677 0.08724127 0.10451914 0.28928068 0.15302217 0.16466103 0.09960362
0.19690797 0.114313595 -0.24266906 -0.041274615 -0.049671426 0.18304415 -0.09191176 0.2424962
0.105629526 -0.043874044 -0.17046987 0.047558412 -0.029784296 -0.04089102 0.14687744 0.18299048
0.037307426 0.083845586 0.18227781 0.047852572 0.16785161 -0.30753788 0.14016618 0.088104196
-0.039194055 0.009510988 0.041285213 0.04295479 -0.03258777 0.074333884 0.18568137 0.17979844
-0.04205832 -0.019114677 0.047593385 0.0040436042 0.2221549 0.00244697 0.17924815 0.12310248
0.13620463 -0.032369047 -0.09914835 -0.26829183 0.0688645 0.10432537 0.18114692 0.15687735
0.025765939 -0.030803712 0.20162278 0.026749063 0.111495264 0.19090976 0.18872058 0.112404145
0.017612461 0.21779893 0.17360173 0.17023867 0.08327681 0.08288191 0.22566925 0.055141583
0.21255845 -0.13763948 -0.06455866 0.009944801 -0.018959042 0.026906043 0.06513367 0.1512296
-0.1314259 0.118596576 0.13754028 -0.090769425 -0.19287048 0.23778649 -0.11763397 0.17944703
0.123473436 0.049205545 -0.09651081 0.0021643294 0.097460225 0.019219426 0.17192702 -0.104412176
-0.038632452 0.12533452 -0.08339037 0.022089139 -0.15383887 0.01442176 0.023703376 0.044651616
-0.18044534 -0.053932603 0.036771577 -0.043993607 0.1755435 -0.09586985 -0.03906327 0.007214982
0.07249124 0.15928358 0.12259491 0.06320707 -0.09524585 0.019517312 0.3011877 -0.041835792
0.12617163 -0.23464271 0.18285745 -0.06971179 -0.00034293268 -0.054312572 0.090057656 -0.018826904
-0.032691594 0.04789623 0.08894747 0.1899549 0.16007803 0.37047184 0.059456114 -0.122509845
0.09876767 -0.07942283 0.019826135 -0.061345838 0.09486412 -0.016904378 -0.13792628 0.0066855857
-0.06079951 0.17859478 -0.05023222 -0.05673864 -0.1134539 0.3841399 -0.0053657587 0.13640638

rnn.bias_hh_l1 f4 [160]
00000000: 0e8d a83d e02b f43d f9c5 863d 4ef2 af3d
00000010: b86b 103e 2f61 ce3c 2696 2cbd c77f d9bd
00000020: c11f 25be b0ea 163d f310 cabd 6836 243e
00000030: 499a 5d3e 3e9d 3d3d f3ea 793d 8871 83bd
00000040: f56c 8cbc ec4b d4bc 21da 23be 3b5b 2f3e
00000050: 221c 4b3d 6920 2d3e f882 a13d a394 db3d
00000060: fb7a 99bd b97c cf3d 72c2 10bd 1cb2 f13d
00000070: c3c8 b33d 35a5 3d3d a9db 203e 99b3 153e
00000080: 2e04 f1bb 68ba 503e 998b 1d3d e47c ad3d
00000090: 21ab df3d b76b 81be e781 97bd e6f5 1b3e
000000a0: 5ea8 95bd da61 26bd 34d5 28bd 6821 213b
000000b0: ca65 023e 3941 1e3d 82c3 2a3e 19fb ca3d
000000c0: 4e9e 1bbe c97e 1d3d f98a 63bd 4b01 d5bc
000000d0: 384e 343e dadd a73d c20b ddbb ff60 0d3e
000000e0: e739 9b3c 4ce0 3dbd 668c eabd 3314 21bd
000000f0: f6fc 523e c00b ea3d 6e4a 8d3d 1815 40bd
00000100: f2e9 353d f80f 913b d0bd 2f3e f520 823d
00000110: a91e 003e 84d5 bc3d 16e1 d0bc 81b0 06bd
00000120: d55d 043d 9b2b fe3d 73c7 3c3d 83f9 5ebd
00000130: b2a1 b03d e24a 5f3d 8583 cf3d 449c 983d
00000140: 9164 433e 2b7b 5b3d af98 34be f68e 68bd
00000150: 7fa5 03be ec7e 8cbd 0489 7bbd ab7b 7dbd
00000160: 47b1 eebd 758c 903d 9d90 c7bd 5332 353e
00000170: fd95 7cbe c5ba f33b 717f 99bd ed5f 27bc
00000180: 68bc 81bd 324b f4bd f392 4b3e 0495 0bbc
00000190: 267e 9a3d 7f5c 483e 8019 c2bd 374d b1bd
000001a0: eb72 a43d 57db 04be 1806 db3a f609 0f3e
000001b0: 614c 743d 407b 3c3e f114 883d 23ee c0bd
000001c0: 3697 3dbc 4407 233d 659c 22be 1991 16be
000001d0: f880 743d 86fa 0a3e 81f8 7bbd fda0 52bc
000001e0: e029 e2bc 2065 253e 64ea 23bd 7444 223e
000001f0: dc71 d83d abd3 efbc 4a2b 413e 3068 70bd
00000200: 3777 b53e 96ac 1b3c aedf 483e f8ac 173d
00000210: e162 663e 9db4 1fbe e229 ec3d d336 1dbd
00000220: 14ae 8c3d 4898 343e bbf0 8c3e 2216 44bd
00000230: 5901 633d 514f 3a3e 05f8 1a3d 4c09 fbbd
00000240: c637 713d e8bc 1cbd 5cfc 413e df86 8a3c
00000250: a1e7 b2bd 247a 483d 8027 8ebe aef7 963c
00000260: 6058 b1bd c0e8 ddbc 1d44 f23b cfda b23d
00000270: 361f c0bd fc3f bb3e d2aa 8e3d 7084 89bd
0.08230029 0.11922431 0.06580729 0.08591138 0.14103591 0.025192825 -0.04213538 -0.10620075
-0.16125394 0.03684491 -0.09866514 0.1603638 0.21640886 0.046292536 0.06101508 -0.06418139
-0.017141799 -0.025915109 -0.16001178 0.17124645 0.049587376 0.16906895 0.078863084 0.107217096
-0.0749416 0.10131211 -0.035341688 0.1180155 0.08778527 0.04630013 0.15708794 0.14619292
-0.0073552346 0.20383608 0.03846321 0.084710866 0.10921312 -0.25277492 -0.07397824 0.15230522
-0.07307504 -0.040620662 -0.04121895 0.0024586562 0.12734142 0.03863642 0.16676143 0.09911174
-0.15197107 0.03845099 -0.055552457 -0.026001593 0.17607963 0.08196612 -0.0067457864 0.13806532
0.018948508 -0.046356484 -0.1145256 -0.039325904 0.2060431 0.114280224 0.06898962 -0.046895117
0.04441256 0.0044269525 0.17162251 0.06353942 0.12511696 0.092204124 -0.025497954 -0.03288317
0.032316048 0.12410661 0.046088647 -0.05443717 0.08624591 0.054514773 0.10132507 0.0745168
0.19081332 0.05358426 -0.17636369 -0.056776963 -0.128561 -0.06860146 -0.061409965 -0.061885517
-0.11654907 0.0705804 -0.0974438 0.17694978 -0.24666591 0.007438036 -0.07495011 -0.010215742
-0.06334764 -0.11928405 0.19880275 -0.008519415 0.07543592 0.19566534 -0.0947752 -0.08657306
0.08029731 -0.12974297 0.001671019 0.13968644 0.059643153 0.18406391 0.06644619 -0.09420421
-0.011571696 0.03980185 -0.15879972 -0.14703788 0.059693307 0.1357213 -0.06151629 -0.012855765
-0.027607858 0.16151857 -0.040018454 0.15846425 0.10568592 -0.029275736 0.1886417 -0.05869311
0.35442516 0.009501597 0.19616577 0.03703019 0.22498657 -0.15596242 0.11531426 -0.038382363
0.0686914 0.17636216 0.27527413 -0.04787267 0.055421207 0.1819432 0.037834186 -0.122576326
0.05889108 -0.038266093 0.18943924 0.016910015 -0.08735586 0.048944607 -0.2776451 0.01842865
-0.08659434 -0.027088523 0.0073933736 0.08733141 -0.09380953 0.36572254 0.06966175 -0.067147136

distribution_projector.weight f4 [2, 40]
00000000: 20a9 cdc0 d9e2 ccc0 b78b d0c0 e68e ce40
00000010: 0562 d0c0 9e14 c840 d28b d1c0 8933 c940
00000020: 5dd6 8340 f37a c740 1e32 c940 0a0c cd40
00000030: 5e0d d1c0 9d15 c940 be98 d2c0 87ec cf40
00000040: e965 cf40 e7c3 cfc0 a91a 53c0 46d5 d040
00000050: eedd d440 dd6b d4c0 c7ec cc40 b09c c0c0
00000060: 216b cf40 a4fa acc0 8567 9040 8123 ca40
00000070: e659 c7c0 5c97 c940 145a d140 5aed d140
00000080: 9c78 d0c0 c120 d240 0f35 cbc0 1b3b d2c0
00000090: 79f0 cb40 04ae b440 0db0 c940 282d d340
000000a0: 19f5 2cbf 0513 b7be 5383 8bbe 050a e73e
000000b0: 6444 3bbe 8eb8 f93e 1492 763d ec3f 5f3e
000000c0: cce1 5a40 8f51 2a3f a4f2 e13e 7d82 e63e
000000d0: 68a8 cabe 1830 e63e f7b3 c2be 3b10 ac3e
000000e0: d00b 9f3e 1df9 cbbe 05c7 81c0 636e dd3d
000000f0: ce76 033f 8705 9b3e d0ee 093e dbdc b4bf
00000100: 0ac4 c53e ff0f 1ac0 283f 5840 b399 993e
00000110: 89bb 16bf b180 c73e 7115 2f3e 6bc9 da3e
00000120: a090 6dbe 5b5d b43e e6f5 16be 8c4a b3be
00000130: b981 883d 82ed 0a40 e9c2 263f 4273 d23e
-6.426895 -6.4026914 -6.517055 6.4549437 -6.5119653 6.2525167 -6.548318 6.287541
4.1199174 6.2337584 6.287368 6.4077196 -6.5328817 6.2838883 -6.5811453 6.497623
6.48119 -6.492664 -3.2985022 6.5260344 6.652091 -6.638167 6.4039035 -6.019127
6.4818273 -5.405596 4.5126367 6.316834 -6.229724 6.2997265 6.542246 6.5602236
-6.514723 6.5664983 -6.350227 -6.569715 6.3731046 5.646242 6.3027406 6.599262
-0.6756149 -0.35756698 -0.2724863 0.45124832 -0.18287808 0.48773617 0.060197905 0.21801728
3.4200315 0.665307 0.44130433 0.4502143 -0.3958161 0.44958568 -0.38027927 0.33606133
0.310637 -0.39838496 -4.0555444 0.1081207 0.51353157 0.30277655 0.13470006 -1.41299
0.38626128 -2.4072263 3.3788548 0.30000076 -0.58879906 0.3896537 0.17098023 0.42731795
-0.23199701 0.35227475 -0.1474224 -0.35017812 0.06665368 2.1707463 0.6514116 0.4110356

distribution_projector.bias f4 [2]
00000000: 2944 ce40 819f 553e
6.4458203 0.20861627

exp_avg f4 [160, 3]
00000000: 0000 0000 0000 0000 b00b 4da2 0000 0000
00000010: 0000 0000 94d8 d1b8 0000 0000 0000 0000
00000020: 5e2d 6524 0000 0000 0000 0000 dec8 9826
00000030: 0000 0000 0000 0000 fc5e e234 0000 0000
00000040: 0000 0000 37ec 8f3a 0000 0000 0000 0000
00000050: 229f a22a 0000 0000 0000 0000 fbba 852a
00000060: 0000 0000 0000 0000 ddea 9a2b 0000 0000
00000070: 0000 0000 2310 682a 0000 0000 0000 0000
00000080: 04c9 432f 0000 0000 0000 0000 e4f1 7927
00000090: 0000 0000 0000 0000 179b 0fae 0000 0000
000000a0: 0000 0000 dd78 b22f 0000 0000 0000 0000
000000b0: 8e85 2a28 0000 0000 0000 0000 44c6 689f
000000c0: 0000 0000 0000 0000 7d2c f33a 0000 0000
000000d0: 0000 0000 2a5d c32b 0000 0000 0000 0000
000000e0: cff3 8522 0000 0000 0000 0000 e162 9e2b
000000f0: 0000 0000 0000 0000 f521 1231 0000 0000
00000100: 0000 0000 90c5 7a2a 0000 0000 0000 0000
00000110: 567f f82b 0000 0000 0000 0000 24e0 9239
00000120: 0000 0000 0000 0000 f54e 58a2 0000 0000
00000130: 0000 0000 9832 a31c 0000 0000 0000 0000
00000140: e84d 9c24 0000 0000 0000 0000 1dc6 d629
00000150: 0000 0000 0000 0000 9b19 dba4 0000 0000
00000160: 0000 0000 66de c925 0000 0000 0000 0000
00000170: 16fa 14a8 0000 0000 0000 0000 564f 36a2
00000180: 0000 0000 0000 0000 6be6 3b24 0000 0000
00000190: 0000 0000 f7f0 c5b3 0000 0000 0000 0000
000001a0: f025 0639 0000 0000 0000 0000 867c 2330
000001b0: 0000 0000 0000 0000 ec37 8c29 0000 0000
000001c0: 0000 0000 f026 972d 0000 0000 0000 0000
000001d0: 8f41 15a9 0000 0000 0000 0000 a258 26a7
000001e0: 0000 0000 0000 0000 b51d d8a2 0000 0000
000001f0: 0000 0000 5714 a8b9 0000 0000 0000 0000
00000200: ef2e 5726 0000 0000 0000 0000 8137 ab9f
00000210: 0000 0000 0000 0000 8223 90b7 0000 0000
00000220: 0000 0000 5178 4bb7 0000 0000 0000 0000
00000230: ac5d 1129 0000 0000 0000 0000 a749 1e24
00000240: 0000 0000 0000 0000 34bc 22a0 0000 0000
00000250: 0000 0000 0010 91a2 0000 0000 0000 0000
00000260: fda1 991f 0000 0000 0000 0000 1184 3221
00000270: 0000 0000 0000 0000 ae95 64a3 0000 0000
00000280: 0000 0000 2420 07a6 0000 0000 0000 0000
00000290: 7181 0521 0000 0000 0000 0000 3ff3 4329
000002a0: 0000 0000 0000 0000 c849 d43a 0000 0000
000002b0: 0000 0000 72ec d629 0000 0000 0000 0000
000002c0: cd96 6f24 0000 0000 0000 0000 4535 88a5
000002d0: 0000 0000 0000 0000 f8d7 b826 0000 0000
000002e0: 0000 0000 9d7c 822c 0000 0000 0000 0000
000002f0: 3b0a f1a4 0000 0000 0000 0000 b42c 44b9
00000300: 0000 0000 0000 0000 2e3a 8b26 0000 0000
00000310: 0000 0000 8d10 3521 0000 0000 0000 0000
00000320: bfff e6a3 0000 0000 0000 0000 aac9 4fa0
00000330: 0000 0000 0000 0000 3950 b9a0 0000 0000
00000340: 0000 0000 9c89 4123 0000 0000 0000 0000
00000350: 8856 9ca3 0000 0000 0000 0000 afdb 11a5
00000360: 0000 0000 0000 0000 ef95 ad9f 0000 0000
00000370: 0000 0000 6bfe 22b7 0000 0000 0000 0000
00000380: 70ae 6938 0000 0000 0000 0000 362d 0022
00000390: 0000 0000 0000 0000 9522 4128 0000 0000
000003a0: 0000 0000 1b7f 6821 0000 0000 0000 0000
000003b0: 543c 76a4 0000 0000 0000 0000 8693 6fa8
000003c0: 0000 0000 0000 0000 6187 3ea5 0000 0000
000003d0: 0000 0000 7504 93b9 0000 0000 0000 0000
000003e0: dd37 2da3 0000 0000 0000 0000 2f37 0724
000003f0: 0000 0000 0000 0000 328f 3c2b 0000 0000
0.0 0.0 -2.7788868e-18 0.0 0.0 -0.000100062374 0.0 0.0
4.9694887e-17 0.0 0.0 1.0601564e-15 0.0 0.0 4.216489e-07 0.0
0.0 0.0010980432 0.0 0.0 2.8887401e-13 0.0 0.0 2.375529e-13
0.0 0.0 1.1007546e-12 0.0 0.0 2.0611338e-13 0.0 0.0
1.7806562e-10 0.0 0.0 3.468682e-15 0.0 0.0 -3.2652183e-11 0.0
0.0 3.246389e-10 0.0 0.0 9.465856e-15 0.0 0.0 -4.9291912e-20
0.0 0.0 0.0018552687 0.0 0.0 1.3881442e-12 0.0 0.0
3.6307865e-18 0.0 0.0 1.125402e-12 0.0 0.0 2.1265099e-09 0.0
0.0 2.2273004e-13 0.0 0.0 1.7656803e-12 0.0 0.0 0.00028014288
0.0 0.0 -2.9315258e-18 0.0 0.0 1.0799513e-21 0.0 0.0
6.7786194e-17 0.0 0.0 9.537876e-14 0.0 0.0 -9.501949e-17 0.0
0.0 3.5018645e-16 0.0 0.0 -8.269879e-15 0.0 0.0 -2.47076e-18
0.0 0.0 4.0744333e-17 0.0 0.0 -9.2173586e-08 0.0 0.0
0.00012793369 0.0 0.0 5.9476013e-10 0.0 0.0 6.22695e-14 0.0
0.0 1.7184004e-11 0.0 0.0 -3.314151e-14 0.0 0.0 -2.3085176e-15
0.0 0.0 -5.857837e-18 0.0 0.0 -0.0003205861 0.0 0.0
7.4656716e-16 0.0 0.0 -7.251314e-20 0.0 0.0 -1.7182672e-05 0.0
0.0 -1.2127756e-05 0.0 0.0 3.2277715e-14 0.0 0.0 3.4323175e-17
0.0 0.0 -1.3784205e-19 0.0 0.0 -3.931927e-18 0.0 0.0
6.506601e-20 0.0 0.0 6.0483534e-19 0.0 0.0 -1.2391601e-17 0.0
0.0 -4.688109e-16 0.0 0.0 4.5233467e-19 0.0 0.0 4.350968e-14
0.0 0.0 0.0016196305 0.0 0.0 9.544526e-14 0.0 0.0
5.1952597e-17 0.0 0.0 -2.3628336e-16 0.0 0.0 1.2826103e-15 0.0
0.0 3.708657e-12 0.0 0.0 -1.0453442e-16 0.0 0.0 -0.0001870867
0.0 0.0 9.660832e-16 0.0 0.0 6.134709e-19 0.0 0.0
-2.5044963e-17 0.0 0.0 -1.7600307e-19 0.0 0.0 -3.1393306e-19 0.0
0.0 1.0491691e-17 0.0 0.0 -1.6950201e-17 0.0 0.0 -1.2651177e-16
0.0 0.0 -7.3516394e-20 0.0 0.0 -9.715189e-06 0.0 0.0
5.5713987e-05 0.0 0.0 1.737117e-18 0.0 0.0 1.0721151e-14 0.0
0.0 7.877288e-19 0.0 0.0 -5.3393847e-17 0.0 0.0 -1.3299154e-14
0.0 0.0 -1.6525741e-16 0.0 0.0 -0.00028041346 0.0 0.0
-9.390178e-18 0.0 0.0 2.93202e-17 0.0 0.0 6.698974e-13 0.0
